…
[2024-03-13 01:19:58,848] [INFO] [partition_parameters.py:343:__exit__] finished initializing model - num_params = 255, num_elems = 9.32B




Loading checkpoint shards: 100%|██████████| 4/4 [00:20<00:00,  5.09s/it]
trainable params: 200,015,872 || all params: 8,737,696,768 || trainable%: 2.2891143662997853
Downloading readme: 100%|██████████| 283/283 [00:00<00:00, 1.70MB/s]
Size of the train set: 6124. Size of the validation set: 10
The character to token ratio of the dataset is: 4.66
PeftModelForCausalLM(
  (base_model): LoraModel(
    (model): GemmaForCausalLM(
      (model): GemmaModel(
        (embed_tokens): Embedding(256000, 3072, padding_idx=0)
        (layers): ModuleList(
          (0-27): 28 x GemmaDecoderLayer(
            (self_attn): GemmaAttention(
              (q_proj): lora.Linear(
                (base_layer): Linear(in_features=3072, out_features=4096, bias=False)
                (lora_dropout): ModuleDict(
                  (default): Dropout(p=0.1, inplace=False)
                )
                (lora_A): ModuleDict(
                  (default): Linear(in_features=3072, out_features=64, bias=False)
                )
                (lora_B): ModuleDict(
                  (default): Linear(in_features=64, out_features=4096, bias=False)
                )
                (lora_embedding_A): ParameterDict()
                (lora_embedding_B): ParameterDict()
              )
              (k_proj): lora.Linear(
                (base_layer): Linear(in_features=3072, out_features=4096, bias=False)
                (lora_dropout): ModuleDict(
                  (default): Dropout(p=0.1, inplace=False)
                )
                (lora_A): ModuleDict(
                  (default): Linear(in_features=3072, out_features=64, bias=False)
                )
                (lora_B): ModuleDict(
                  (default): Linear(in_features=64, out_features=4096, bias=False)
                )
                (lora_embedding_A): ParameterDict()
                (lora_embedding_B): ParameterDict()
              )
              (v_proj): lora.Linear(
                (base_layer): Linear(in_features=3072, out_features=4096, bias=False)
                (lora_dropout): ModuleDict(
                  (default): Dropout(p=0.1, inplace=False)
                )
                (lora_A): ModuleDict(
                  (default): Linear(in_features=3072, out_features=64, bias=False)
                )
                (lora_B): ModuleDict(
                  (default): Linear(in_features=64, out_features=4096, bias=False)
                )
                (lora_embedding_A): ParameterDict()
                (lora_embedding_B): ParameterDict()
              )
              (o_proj): lora.Linear(
                (base_layer): Linear(in_features=4096, out_features=3072, bias=False)
                (lora_dropout): ModuleDict(
                  (default): Dropout(p=0.1, inplace=False)
                )
                (lora_A): ModuleDict(
                  (default): Linear(in_features=4096, out_features=64, bias=False)
                )
                (lora_B): ModuleDict(
                  (default): Linear(in_features=64, out_features=3072, bias=False)
                )
                (lora_embedding_A): ParameterDict()
                (lora_embedding_B): ParameterDict()
              )
              (rotary_emb): GemmaRotaryEmbedding()
            )
            (mlp): GemmaMLP(
              (gate_proj): lora.Linear(
                (base_layer): Linear(in_features=3072, out_features=24576, bias=False)
                (lora_dropout): ModuleDict(
                  (default): Dropout(p=0.1, inplace=False)
                )
                (lora_A): ModuleDict(
                  (default): Linear(in_features=3072, out_features=64, bias=False)
                )
                (lora_B): ModuleDict(
                  (default): Linear(in_features=64, out_features=24576, bias=False)
                )
                (lora_embedding_A): ParameterDict()
                (lora_embedding_B): ParameterDict()
              )
              (up_proj): lora.Linear(
                (base_layer): Linear(in_features=3072, out_features=24576, bias=False)
                (lora_dropout): ModuleDict(
                  (default): Dropout(p=0.1, inplace=False)
                )
                (lora_A): ModuleDict(
                  (default): Linear(in_features=3072, out_features=64, bias=False)
                )
                (lora_B): ModuleDict(
                  (default): Linear(in_features=64, out_features=24576, bias=False)
                )
                (lora_embedding_A): ParameterDict()
                (lora_embedding_B): ParameterDict()
              )
              (down_proj): lora.Linear(
                (base_layer): Linear(in_features=24576, out_features=3072, bias=False)
                (lora_dropout): ModuleDict(
                  (default): Dropout(p=0.1, inplace=False)
                )
                (lora_A): ModuleDict(
                  (default): Linear(in_features=24576, out_features=64, bias=False)
                )
                (lora_B): ModuleDict(
                  (default): Linear(in_features=64, out_features=3072, bias=False)
                )
                (lora_embedding_A): ParameterDict()
                (lora_embedding_B): ParameterDict()
              )
              (act_fn): GELUActivation()
            )
            (input_layernorm): GemmaRMSNorm()
            (post_attention_layernorm): GemmaRMSNorm()
          )
        )
        (norm): GemmaRMSNorm()
      )
      (lm_head): Linear(in_features=3072, out_features=256000, bias=False)
    )
  )
)
trainable params: 200,015,872 || all params: 8,737,696,768 || trainable%: 2.2891143662997853
Downloading data: 100%|██████████| 6.75M/6.75M [00:00<00:00, 12.1MB/s]
Setting num_proc from 4 back to 1 for the train split to disable multiprocessing as it only contains one shard.
Generating train split: 100%|██████████| 6124/6124 [00:00<00:00, 108667.35 examples/s]
…
